Model: "sequential_2"
┏━━━━━━━━━━━━━━━━━━━━━━━━━━━━━━━━━━━━━━┳━━━━━━━━━━━━━━━━━━━━━━━━━━━━━┳━━━━━━━━━━━━━━━━━┓
┃ Layer (type)                         ┃ Output Shape                ┃         Param # ┃
┡━━━━━━━━━━━━━━━━━━━━━━━━━━━━━━━━━━━━━━╇━━━━━━━━━━━━━━━━━━━━━━━━━━━━━╇━━━━━━━━━━━━━━━━━┩
│ sequential_1 (Sequential)            │ (None, 256, 256, 3)         │               0 │
├──────────────────────────────────────┼─────────────────────────────┼─────────────────┤
│ rescaling_2 (Rescaling)              │ (None, 256, 256, 3)         │               0 │
├──────────────────────────────────────┼─────────────────────────────┼─────────────────┤
│ conv2d_3 (Conv2D)                    │ (None, 256, 256, 16)        │             448 │
├──────────────────────────────────────┼─────────────────────────────┼─────────────────┤
│ max_pooling2d_3 (MaxPooling2D)       │ (None, 128, 128, 16)        │               0 │
├──────────────────────────────────────┼─────────────────────────────┼─────────────────┤
│ conv2d_4 (Conv2D)                    │ (None, 128, 128, 32)        │           4,640 │
├──────────────────────────────────────┼─────────────────────────────┼─────────────────┤
│ max_pooling2d_4 (MaxPooling2D)       │ (None, 64, 64, 32)          │               0 │
├──────────────────────────────────────┼─────────────────────────────┼─────────────────┤
│ conv2d_5 (Conv2D)                    │ (None, 64, 64, 64)          │          18,496 │
├──────────────────────────────────────┼─────────────────────────────┼─────────────────┤
│ max_pooling2d_5 (MaxPooling2D)       │ (None, 32, 32, 64)          │               0 │
├──────────────────────────────────────┼─────────────────────────────┼─────────────────┤
│ dropout (Dropout)                    │ (None, 32, 32, 64)          │               0 │
├──────────────────────────────────────┼─────────────────────────────┼─────────────────┤
│ flatten_1 (Flatten)                  │ (None, 65536)               │               0 │
├──────────────────────────────────────┼─────────────────────────────┼─────────────────┤
│ dense_2 (Dense)                      │ (None, 128)                 │       8,388,736 │
├──────────────────────────────────────┼─────────────────────────────┼─────────────────┤
│ outputs (Dense)                      │ (None, 8)                   │           1,032 │
└──────────────────────────────────────┴─────────────────────────────┴─────────────────┘
 Total params: 8,413,352 (32.09 MB)
 Trainable params: 8,413,352 (32.09 MB)
 Non-trainable params: 0 (0.00 B)
Epoch 1/15
117/117 ━━━━━━━━━━━━━━━━━━━━ 37s 307ms/step - accuracy: 0.2037 - loss: 2.1768 - val_accuracy: 0.4125 - val_loss: 1.5824
Epoch 2/15
117/117 ━━━━━━━━━━━━━━━━━━━━ 36s 304ms/step - accuracy: 0.5129 - loss: 1.3852 - val_accuracy: 0.4962 - val_loss: 1.4356
…
